…
    NAME: cosine
  MIN_LR: 0.0
  OPTIMIZER:
    BETAS:
    - 0.9
    - 0.999
    DCN_LR_MUL: null
    EPS: 1.0e-08
    FREEZE_BACKBONE: null
    MOMENTUM: 0.9
    NAME: sgd
    USE_ZERO: false
  RAND_INIT_FT_HEAD: false
  START_EPOCH: 0
  USE_CHECKPOINT: false
  WARMUP_EPOCHS: 1
  WARMUP_LR: 0.0
  WEIGHT_DECAY: 0.0

[2023-11-09 22:22:39 intern_vit_6b_1k_224_cls_patch_sgd_lr0.1] (main.py 173): INFO Creating model:intern_vit_6b/intern_vit_6b_1k_224_cls_patch_sgd_lr0.1
[2023-11-09 22:24:14 intern_vit_6b_1k_224_cls_patch_sgd_lr0.1] (main.py 176): INFO InternViT6B(
  (patch_embed): PatchEmbed(
    (proj): Conv2d(3, 3200, kernel_size=(14, 14), stride=(14, 14))
    (norm): Identity()
  )
  (pos_drop): Identity()
  (blocks): ModuleList(
    (0): Block(
      (norm1): FusedRMSNorm(torch.Size([3200]), eps=1e-06, elementwise_affine=True)
      (attn): Attention(
        (qkv): Linear(in_features=3200, out_features=9600, bias=False)
        (attn_drop): Dropout(p=0.0, inplace=False)
        (proj): Linear(in_features=3200, out_features=3200, bias=True)
        (proj_drop): Dropout(p=0.0, inplace=False)
        (inner_attn): FlashAttention()
        (q_norm): FusedRMSNorm(torch.Size([3200]), eps=1e-06, elementwise_affine=True)
        (k_norm): FusedRMSNorm(torch.Size([3200]), eps=1e-06, elementwise_affine=True)
      )
      (ls1): LayerScale()
      (drop_path1): Identity()
      (norm2): FusedRMSNorm(torch.Size([3200]), eps=1e-06, elementwise_affine=True)
      (mlp): Mlp(
        (fc1): Linear(in_features=3200, out_features=12800, bias=True)
        (act): GELU(approximate='none')
        (drop1): Dropout(p=0.0, inplace=False)
        (fc2): Linear(in_features=12800, out_features=3200, bias=True)
        (drop2): Dropout(p=0.0, inplace=False)
      )
      (ls2): LayerScale()
      (drop_path2): Identity()
    )
    (1): Block(
      (norm1): FusedRMSNorm(torch.Size([3200]), eps=1e-06, elementwise_affine=True)
      (attn): Attention(
        (qkv): Linear(in_features=3200, out_features=9600, bias=False)
        (attn_drop): Dropout(p=0.0, inplace=False)
        (proj): Linear(in_features=3200, out_features=3200, bias=True)
        (proj_drop): Dropout(p=0.0, inplace=False)
        (inner_attn): FlashAttention()
        (q_norm): FusedRMSNorm(torch.Size([3200]), eps=1e-06, elementwise_affine=True)
        (k_norm): FusedRMSNorm(torch.Size([3200]), eps=1e-06, elementwise_affine=True)
      )
      (ls1): LayerScale()
      (drop_path1): Identity()
      (norm2): FusedRMSNorm(torch.Size([3200]), eps=1e-06, elementwise_affine=True)
      (mlp): Mlp(
        (fc1): Linear(in_features=3200, out_features=12800, bias=True)
        (act): GELU(approximate='none')
        (drop1): Dropout(p=0.0, inplace=False)
        (fc2): Linear(in_features=12800, out_features=3200, bias=True)
        (drop2): Dropout(p=0.0, inplace=False)
      )
      (ls2): LayerScale()
      (drop_path2): Identity()
    )
    (2): Block(
      (norm1): FusedRMSNorm(torch.Size([3200]), eps=1e-06, elementwise_affine=True)
      (attn): Attention(
        (qkv): Linear(in_features=3200, out_features=9600, bias=False)
        (attn_drop): Dropout(p=0.0, inplace=False)
        (proj): Linear(in_features=3200, out_features=3200, bias=True)
        (proj_drop): Dropout(p=0.0, inplace=False)
        (inner_attn): FlashAttention()
        (q_norm): FusedRMSNorm(torch.Size([3200]), eps=1e-06, elementwise_affine=True)
        (k_norm): FusedRMSNorm(torch.Size([3200]), eps=1e-06, elementwise_affine=True)
      )
      (ls1): LayerScale()
      (drop_path1): Identity()
      (norm2): FusedRMSNorm(torch.Size([3200]), eps=1e-06, elementwise_affine=True)
      (mlp): Mlp(
        (fc1): Linear(in_features=3200, out_features=12800, bias=True)
        (act): GELU(approximate='none')
        (drop1): Dropout(p=0.0, inplace=False)
        (fc2): Linear(in_features=12800, out_features=3200, bias=True)
        (drop2): Dropout(p=0.0, inplace=False)
      )
      (ls2): LayerScale()
      (drop_path2): Identity()
    )
    (3): Block(
      (norm1): FusedRMSNorm(torch.Size([3200]), eps=1e-06, elementwise_affine=True)
      (attn): Attention(
        (qkv): Linear(in_features=3200, out_features=9600, bias=False)
        (attn_drop): Dropout(p=0.0, inplace=False)
        (proj): Linear(in_features=3200, out_features=3200, bias=True)
        (proj_drop): Dropout(p=0.0, inplace=False)
        (inner_attn): FlashAttention()
        (q_norm): FusedRMSNorm(torch.Size([3200]), eps=1e-06, elementwise_affine=True)
        (k_norm): FusedRMSNorm(torch.Size([3200]), eps=1e-06, elementwise_affine=True)
      )
      (ls1): LayerScale()
      (drop_path1): Identity()
      (norm2): FusedRMSNorm(torch.Size([3200]), eps=1e-06, elementwise_affine=True)
      (mlp): Mlp(
        (fc1): Linear(in_features=3200, out_features=12800, bias=True)
        (act): GELU(approximate='none')
        (drop1): Dropout(p=0.0, inplace=False)
        (fc2): Linear(in_features=12800, out_features=3200, bias=True)
        (drop2): Dropout(p=0.0, inplace=False)
      )
      (ls2): LayerScale()
      (drop_path2): Identity()
    )
    (4): Block(
      (norm1): FusedRMSNorm(torch.Size([3200]), eps=1e-06, elementwise_affine=True)
      (attn): Attention(
        (qkv): Linear(in_features=3200, out_features=9600, bias=False)
        (attn_drop): Dropout(p=0.0, inplace=False)
        (proj): Linear(in_features=3200, out_features=3200, bias=True)
        (proj_drop): Dropout(p=0.0, inplace=False)
        (inner_attn): FlashAttention()
        (q_norm): FusedRMSNorm(torch.Size([3200]), eps=1e-06, elementwise_affine=True)
        (k_norm): FusedRMSNorm(torch.Size([3200]), eps=1e-06, elementwise_affine=True)
      )
      (ls1): LayerScale()
      (drop_path1): Identity()
      (norm2): FusedRMSNorm(torch.Size([3200]), eps=1e-06, elementwise_affine=True)
      (mlp): Mlp(
        (fc1): Linear(in_features=3200, out_features=12800, bias=True)
        (act): GELU(approximate='none')
        (drop1): Dropout(p=0.0, inplace=False)
        (fc2): Linear(in_features=12800, out_features=3200, bias=True)
        (drop2): Dropout(p=0.0, inplace=False)
      )
      (ls2): LayerScale()
      (drop_path2): Identity()
    )
    (5): Block(
      (norm1): FusedRMSNorm(torch.Size([3200]), eps=1e-06, elementwise_affine=True)
      (attn): Attention(
        (qkv): Linear(in_features=3200, out_features=9600, bias=False)
        (attn_drop): Dropout(p=0.0, inplace=False)
        (proj): Linear(in_features=3200, out_features=3200, bias=True)
        (proj_drop): Dropout(p=0.0, inplace=False)
        (inner_attn): FlashAttention()
        (q_norm): FusedRMSNorm(torch.Size([3200]), eps=1e-06, elementwise_affine=True)
        (k_norm): FusedRMSNorm(torch.Size([3200]), eps=1e-06, elementwise_affine=True)
      )
      (ls1): LayerScale()
      (drop_path1): Identity()
      (norm2): FusedRMSNorm(torch.Size([3200]), eps=1e-06, elementwise_affine=True)
      (mlp): Mlp(
        (fc1): Linear(in_features=3200, out_features=12800, bias=True)
        (act): GELU(approximate='none')
        (drop1): Dropout(p=0.0, inplace=False)
        (fc2): Linear(in_features=12800, out_features=3200, bias=True)
        (drop2): Dropout(p=0.0, inplace=False)
      )
      (ls2): LayerScale()
      (drop_path2): Identity()
    )
    (6): Block(
      (norm1): FusedRMSNorm(torch.Size([3200]), eps=1e-06, elementwise_affine=True)
      (attn): Attention(
        (qkv): Linear(in_features=3200, out_features=9600, bias=False)
        (attn_drop): Dropout(p=0.0, inplace=False)
        (proj): Linear(in_features=3200, out_features=3200, bias=True)
        (proj_drop): Dropout(p=0.0, inplace=False)
        (inner_attn): FlashAttention()
        (q_norm): FusedRMSNorm(torch.Size([3200]), eps=1e-06, elementwise_affine=True)
        (k_norm): FusedRMSNorm(torch.Size([3200]), eps=1e-06, elementwise_affine=True)
      )
      (ls1): LayerScale()
      (drop_path1): Identity()
      (norm2): FusedRMSNorm(torch.Size([3200]), eps=1e-06, elementwise_affine=True)
      (mlp): Mlp(
        (fc1): Linear(in_features=3200, out_features=12800, bias=True)
        (act): GELU(approximate='none')
        (drop1): Dropout(p=0.0, inplace=False)
        (fc2): Linear(in_features=12800, out_features=3200, bias=True)
        (drop2): Dropout(p=0.0, inplace=False)
      )
      (ls2): LayerScale()
      (drop_path2): Identity()
    )
    (7): Block(
      (norm1): FusedRMSNorm(torch.Size([3200]), eps=1e-06, elementwise_affine=True)
      (attn): Attention(
        (qkv): Linear(in_features=3200, out_features=9600, bias=False)
        (attn_drop): Dropout(p=0.0, inplace=False)
        (proj): Linear(in_features=3200, out_features=3200, bias=True)
        (proj_drop): Dropout(p=0.0, inplace=False)
        (inner_attn): FlashAttention()
        (q_norm): FusedRMSNorm(torch.Size([3200]), eps=1e-06, elementwise_affine=True)
        (k_norm): FusedRMSNorm(torch.Size([3200]), eps=1e-06, elementwise_affine=True)
      )
      (ls1): LayerScale()
      (drop_path1): Identity()
      (norm2): FusedRMSNorm(torch.Size([3200]), eps=1e-06, elementwise_affine=True)
      (mlp): Mlp(
        (fc1): Linear(in_features=3200, out_features=12800, bias=True)
        (act): GELU(approximate='none')
        (drop1): Dropout(p=0.0, inplace=False)
        (fc2): Linear(in_features=12800, out_features=3200, bias=True)
        (drop2): Dropout(p=0.0, inplace=False)
      )
      (ls2): LayerScale()
      (drop_path2): Identity()
    )
    (8): Block(
      (norm1): FusedRMSNorm(torch.Size([3200]), eps=1e-06, elementwise_affine=True)
      (attn): Attention(
        (qkv): Linear(in_features=3200, out_features=9600, bias=False)
        (attn_drop): Dropout(p=0.0, inplace=False)
        (proj): Linear(in_features=3200, out_features=3200, bias=True)
        (proj_drop): Dropout(p=0.0, inplace=False)
        (inner_attn): FlashAttention()
        (q_norm): FusedRMSNorm(torch.Size([3200]), eps=1e-06, elementwise_affine=True)
        (k_norm): FusedRMSNorm(torch.Size([3200]), eps=1e-06, elementwise_affine=True)
      )
      (ls1): LayerScale()
      (drop_path1): Identity()
      (norm2): FusedRMSNorm(torch.Size([3200]), eps=1e-06, elementwise_affine=True)
      (mlp): Mlp(
        (fc1): Linear(in_features=3200, out_features=12800, bias=True)
        (act): GELU(approximate='none')
        (drop1): Dropout(p=0.0, inplace=False)
        (fc2): Linear(in_features=12800, out_features=3200, bias=True)
        (drop2): Dropout(p=0.0, inplace=False)
      )
      (ls2): LayerScale()
      (drop_path2): Identity()
    )
    (9): Block(
      (norm1): FusedRMSNorm(torch.Size([3200]), eps=1e-06, elementwise_affine=True)
      (attn): Attention(
        (qkv): Linear(in_features=3200, out_features=9600, bias=False)
        (attn_drop): Dropout(p=0.0, inplace=False)
        (proj): Linear(in_features=3200, out_features=3200, bias=True)
        (proj_drop): Dropout(p=0.0, inplace=False)
        (inner_attn): FlashAttention()
        (q_norm): FusedRMSNorm(torch.Size([3200]), eps=1e-06, elementwise_affine=True)
        (k_norm): FusedRMSNorm(torch.Size([3200]), eps=1e-06, elementwise_affine=True)
      )
      (ls1): LayerScale()
      (drop_path1): Identity()
      (norm2): FusedRMSNorm(torch.Size([3200]), eps=1e-06, elementwise_affine=True)
      (mlp): Mlp(
        (fc1): Linear(in_features=3200, out_features=12800, bias=True)
        (act): GELU(approximate='none')
        (drop1): Dropout(p=0.0, inplace=False)
        (fc2): Linear(in_features=12800, out_features=3200, bias=True)
        (drop2): Dropout(p=0.0, inplace=False)
      )
      (ls2): LayerScale()
      (drop_path2): Identity()
    )
    (10): Block(
      (norm1): FusedRMSNorm(torch.Size([3200]), eps=1e-06, elementwise_affine=True)
      (attn): Attention(
        (qkv): Linear(in_features=3200, out_features=9600, bias=False)
        (attn_drop): Dropout(p=0.0, inplace=False)
        (proj): Linear(in_features=3200, out_features=3200, bias=True)
        (proj_drop): Dropout(p=0.0, inplace=False)
        (inner_attn): FlashAttention()
        (q_norm): FusedRMSNorm(torch.Size([3200]), eps=1e-06, elementwise_affine=True)
        (k_norm): FusedRMSNorm(torch.Size([3200]), eps=1e-06, elementwise_affine=True)
      )
      (ls1): LayerScale()
      (drop_path1): Identity()
      (norm2): FusedRMSNorm(torch.Size([3200]), eps=1e-06, elementwise_affine=True)
      (mlp): Mlp(
        (fc1): Linear(in_features=3200, out_features=12800, bias=True)
        (act): GELU(approximate='none')
        (drop1): Dropout(p=0.0, inplace=False)
        (fc2): Linear(in_features=12800, out_features=3200, bias=True)
        (drop2): Dropout(p=0.0, inplace=False)
      )
      (ls2): LayerScale()
      (drop_path2): Identity()
    )
    (11): Block(
      (norm1): FusedRMSNorm(torch.Size([3200]), eps=1e-06, elementwise_affine=True)
      (attn): Attention(
        (qkv): Linear(in_features=3200, out_features=9600, bias=False)
        (attn_drop): Dropout(p=0.0, inplace=False)
        (proj): Linear(in_features=3200, out_features=3200, bias=True)
        (proj_drop): Dropout(p=0.0, inplace=False)
        (inner_attn): FlashAttention()
        (q_norm): FusedRMSNorm(torch.Size([3200]), eps=1e-06, elementwise_affine=True)
        (k_norm): FusedRMSNorm(torch.Size([3200]), eps=1e-06, elementwise_affine=True)
      )
      (ls1): LayerScale()
      (drop_path1): Identity()
      (norm2): FusedRMSNorm(torch.Size([3200]), eps=1e-06, elementwise_affine=True)
      (mlp): Mlp(
        (fc1): Linear(in_features=3200, out_features=12800, bias=True)
        (act): GELU(approximate='none')
        (drop1): Dropout(p=0.0, inplace=False)
        (fc2): Linear(in_features=12800, out_features=3200, bias=True)
        (drop2): Dropout(p=0.0, inplace=False)
      )
      (ls2): LayerScale()
      (drop_path2): Identity()
    )
    (12): Block(
      (norm1): FusedRMSNorm(torch.Size([3200]), eps=1e-06, elementwise_affine=True)
      (attn): Attention(
        (qkv): Linear(in_features=3200, out_features=9600, bias=False)
        (attn_drop): Dropout(p=0.0, inplace=False)
        (proj): Linear(in_features=3200, out_features=3200, bias=True)
        (proj_drop): Dropout(p=0.0, inplace=False)
        (inner_attn): FlashAttention()
        (q_norm): FusedRMSNorm(torch.Size([3200]), eps=1e-06, elementwise_affine=True)
        (k_norm): FusedRMSNorm(torch.Size([3200]), eps=1e-06, elementwise_affine=True)
      )
      (ls1): LayerScale()
      (drop_path1): Identity()
      (norm2): FusedRMSNorm(torch.Size([3200]), eps=1e-06, elementwise_affine=True)
      (mlp): Mlp(
        (fc1): Linear(in_features=3200, out_features=12800, bias=True)
        (act): GELU(approximate='none')
        (drop1): Dropout(p=0.0, inplace=False)
        (fc2): Linear(in_features=12800, out_features=3200, bias=True)
        (drop2): Dropout(p=0.0, inplace=False)
      )
      (ls2): LayerScale()
      (drop_path2): Identity()
    )
    (13): Block(
      (norm1): FusedRMSNorm(torch.Size([3200]), eps=1e-06, elementwise_affine=True)
      (attn): Attention(
        (qkv): Linear(in_features=3200, out_features=9600, bias=False)
        (attn_drop): Dropout(p=0.0, inplace=False)
        (proj): Linear(in_features=3200, out_features=3200, bias=True)
        (proj_drop): Dropout(p=0.0, inplace=False)
        (inner_attn): FlashAttention()
        (q_norm): FusedRMSNorm(torch.Size([3200]), eps=1e-06, elementwise_affine=True)
        (k_norm): FusedRMSNorm(torch.Size([3200]), eps=1e-06, elementwise_affine=True)
      )
      (ls1): LayerScale()
      (drop_path1): Identity()
      (norm2): FusedRMSNorm(torch.Size([3200]), eps=1e-06, elementwise_affine=True)
      (mlp): Mlp(
        (fc1): Linear(in_features=3200, out_features=12800, bias=True)
        (act): GELU(approximate='none')
        (drop1): Dropout(p=0.0, inplace=False)
        (fc2): Linear(in_features=12800, out_features=3200, bias=True)
        (drop2): Dropout(p=0.0, inplace=False)
      )
      (ls2): LayerScale()
      (drop_path2): Identity()
    )
    (14): Block(
      (norm1): FusedRMSNorm(torch.Size([3200]), eps=1e-06, elementwise_affine=True)
      (attn): Attention(
        (qkv): Linear(in_features=3200, out_features=9600, bias=False)
        (attn_drop): Dropout(p=0.0, inplace=False)
        (proj): Linear(in_features=3200, out_features=3200, bias=True)
        (proj_drop): Dropout(p=0.0, inplace=False)
        (inner_attn): FlashAttention()
        (q_norm): FusedRMSNorm(torch.Size([3200]), eps=1e-06, elementwise_affine=True)
        (k_norm): FusedRMSNorm(torch.Size([3200]), eps=1e-06, elementwise_affine=True)
      )
      (ls1): LayerScale()
      (drop_path1): Identity()
      (norm2): FusedRMSNorm(torch.Size([3200]), eps=1e-06, elementwise_affine=True)
      (mlp): Mlp(
        (fc1): Linear(in_features=3200, out_features=12800, bias=True)
        (act): GELU(approximate='none')
        (drop1): Dropout(p=0.0, inplace=False)
        (fc2): Linear(in_features=12800, out_features=3200, bias=True)
        (drop2): Dropout(p=0.0, inplace=False)
      )
      (ls2): LayerScale()
      (drop_path2): Identity()
    )
    (15): Block(
      (norm1): FusedRMSNorm(torch.Size([3200]), eps=1e-06, elementwise_affine=True)
      (attn): Attention(
        (qkv): Linear(in_features=3200, out_features=9600, bias=False)
        (attn_drop): Dropout(p=0.0, inplace=False)
        (proj): Linear(in_features=3200, out_features=3200, bias=True)
        (proj_drop): Dropout(p=0.0, inplace=False)
        (inner_attn): FlashAttention()
        (q_norm): FusedRMSNorm(torch.Size([3200]), eps=1e-06, elementwise_affine=True)
        (k_norm): FusedRMSNorm(torch.Size([3200]), eps=1e-06, elementwise_affine=True)
      )
      (ls1): LayerScale()
      (drop_path1): Identity()
      (norm2): FusedRMSNorm(torch.Size([3200]), eps=1e-06, elementwise_affine=True)
      (mlp): Mlp(
        (fc1): Linear(in_features=3200, out_features=12800, bias=True)
        (act): GELU(approximate='none')
        (drop1): Dropout(p=0.0, inplace=False)
        (fc2): Linear(in_features=12800, out_features=3200, bias=True)
        (drop2): Dropout(p=0.0, inplace=False)
      )
      (ls2): LayerScale()
      (drop_path2): Identity()
    )
    (16): Block(
      (norm1): FusedRMSNorm(torch.Size([3200]), eps=1e-06, elementwise_affine=True)
      (attn): Attention(
        (qkv): Linear(in_features=3200, out_features=9600, bias=False)
        (attn_drop): Dropout(p=0.0, inplace=False)
        (proj): Linear(in_features=3200, out_features=3200, bias=True)
        (proj_drop): Dropout(p=0.0, inplace=False)
        (inner_attn): FlashAttention()
        (q_norm): FusedRMSNorm(torch.Size([3200]), eps=1e-06, elementwise_affine=True)
        (k_norm): FusedRMSNorm(torch.Size([3200]), eps=1e-06, elementwise_affine=True)
      )
      (ls1): LayerScale()
      (drop_path1): Identity()
      (norm2): FusedRMSNorm(torch.Size([3200]), eps=1e-06, elementwise_affine=True)
      (mlp): Mlp(
        (fc1): Linear(in_features=3200, out_features=12800, bias=True)
        (act): GELU(approximate='none')
        (drop1): Dropout(p=0.0, inplace=False)
        (fc2): Linear(in_features=12800, out_features=3200, bias=True)
        (drop2): Dropout(p=0.0, inplace=False)
      )
      (ls2): LayerScale()
      (drop_path2): Identity()
    )
    (17): Block(
      (norm1): FusedRMSNorm(torch.Size([3200]), eps=1e-06, elementwise_affine=True)
      (attn): Attention(
        (qkv): Linear(in_features=3200, out_features=9600, bias=False)
        (attn_drop): Dropout(p=0.0, inplace=False)
        (proj): Linear(in_features=3200, out_features=3200, bias=True)
        (proj_drop): Dropout(p=0.0, inplace=False)
        (inner_attn): FlashAttention()
        (q_norm): FusedRMSNorm(torch.Size([3200]), eps=1e-06, elementwise_affine=True)
        (k_norm): FusedRMSNorm(torch.Size([3200]), eps=1e-06, elementwise_affine=True)
      )
      (ls1): LayerScale()
      (drop_path1): Identity()
      (norm2): FusedRMSNorm(torch.Size([3200]), eps=1e-06, elementwise_affine=True)
      (mlp): Mlp(
        (fc1): Linear(in_features=3200, out_features=12800, bias=True)
        (act): GELU(approximate='none')
        (drop1): Dropout(p=0.0, inplace=False)
        (fc2): Linear(in_features=12800, out_features=3200, bias=True)
        (drop2): Dropout(p=0.0, inplace=False)
      )
      (ls2): LayerScale()
      (drop_path2): Identity()
    )
    (18): Block(
      (norm1): FusedRMSNorm(torch.Size([3200]), eps=1e-06, elementwise_affine=True)
      (attn): Attention(
        (qkv): Linear(in_features=3200, out_features=9600, bias=False)
        (attn_drop): Dropout(p=0.0, inplace=False)
        (proj): Linear(in_features=3200, out_features=3200, bias=True)
        (proj_drop): Dropout(p=0.0, inplace=False)
        (inner_attn): FlashAttention()
        (q_norm): FusedRMSNorm(torch.Size([3200]), eps=1e-06, elementwise_affine=True)
        (k_norm): FusedRMSNorm(torch.Size([3200]), eps=1e-06, elementwise_affine=True)
      )
      (ls1): LayerScale()
      (drop_path1): Identity()
      (norm2): FusedRMSNorm(torch.Size([3200]), eps=1e-06, elementwise_affine=True)
      (mlp): Mlp(
        (fc1): Linear(in_features=3200, out_features=12800, bias=True)
        (act): GELU(approximate='none')
        (drop1): Dropout(p=0.0, inplace=False)
        (fc2): Linear(in_features=12800, out_features=3200, bias=True)
        (drop2): Dropout(p=0.0, inplace=False)
      )
      (ls2): LayerScale()
      (drop_path2): Identity()
    )
    (19): Block(
      (norm1): FusedRMSNorm(torch.Size([3200]), eps=1e-06, elementwise_affine=True)
      (attn): Attention(
        (qkv): Linear(in_features=3200, out_features=9600, bias=False)
        (attn_drop): Dropout(p=0.0, inplace=False)
        (proj): Linear(in_features=3200, out_features=3200, bias=True)
        (proj_drop): Dropout(p=0.0, inplace=False)
        (inner_attn): FlashAttention()
        (q_norm): FusedRMSNorm(torch.Size([3200]), eps=1e-06, elementwise_affine=True)
        (k_norm): FusedRMSNorm(torch.Size([3200]), eps=1e-06, elementwise_affine=True)
      )
      (ls1): LayerScale()
      (drop_path1): Identity()
      (norm2): FusedRMSNorm(torch.Size([3200]), eps=1e-06, elementwise_affine=True)
      (mlp): Mlp(
        (fc1): Linear(in_features=3200, out_features=12800, bias=True)
        (act): GELU(approximate='none')
        (drop1): Dropout(p=0.0, inplace=False)
        (fc2): Linear(in_features=12800, out_features=3200, bias=True)
        (drop2): Dropout(p=0.0, inplace=False)
      )
      (ls2): LayerScale()
      (drop_path2): Identity()
    )
    (20): Block(
      (norm1): FusedRMSNorm(torch.Size([3200]), eps=1e-06, elementwise_affine=True)
      (attn): Attention(
        (qkv): Linear(in_features=3200, out_features=9600, bias=False)
        (attn_drop): Dropout(p=0.0, inplace=False)
        (proj): Linear(in_features=3200, out_features=3200, bias=True)
        (proj_drop): Dropout(p=0.0, inplace=False)
        (inner_attn): FlashAttention()
        (q_norm): FusedRMSNorm(torch.Size([3200]), eps=1e-06, elementwise_affine=True)
        (k_norm): FusedRMSNorm(torch.Size([3200]), eps=1e-06, elementwise_affine=True)
      )
      (ls1): LayerScale()
      (drop_path1): Identity()
      (norm2): FusedRMSNorm(torch.Size([3200]), eps=1e-06, elementwise_affine=True)
      (mlp): Mlp(
        (fc1): Linear(in_features=3200, out_features=12800, bias=True)
        (act): GELU(approximate='none')
        (drop1): Dropout(p=0.0, inplace=False)
        (fc2): Linear(in_features=12800, out_features=3200, bias=True)
        (drop2): Dropout(p=0.0, inplace=False)
      )
      (ls2): LayerScale()
      (drop_path2): Identity()
    )
    (21): Block(
      (norm1): FusedRMSNorm(torch.Size([3200]), eps=1e-06, elementwise_affine=True)
      (attn): Attention(
        (qkv): Linear(in_features=3200, out_features=9600, bias=False)
        (attn_drop): Dropout(p=0.0, inplace=False)
        (proj): Linear(in_features=3200, out_features=3200, bias=True)
        (proj_drop): Dropout(p=0.0, inplace=False)
        (inner_attn): FlashAttention()
        (q_norm): FusedRMSNorm(torch.Size([3200]), eps=1e-06, elementwise_affine=True)
        (k_norm): FusedRMSNorm(torch.Size([3200]), eps=1e-06, elementwise_affine=True)
      )
      (ls1): LayerScale()
      (drop_path1): Identity()
      (norm2): FusedRMSNorm(torch.Size([3200]), eps=1e-06, elementwise_affine=True)
      (mlp): Mlp(
        (fc1): Linear(in_features=3200, out_features=12800, bias=True)
        (act): GELU(approximate='none')
        (drop1): Dropout(p=0.0, inplace=False)
        (fc2): Linear(in_features=12800, out_features=3200, bias=True)
        (drop2): Dropout(p=0.0, inplace=False)
      )
      (ls2): LayerScale()
      (drop_path2): Identity()
    )
    (22): Block(
      (norm1): FusedRMSNorm(torch.Size([3200]), eps=1e-06, elementwise_affine=True)
      (attn): Attention(
        (qkv): Linear(in_features=3200, out_features=9600, bias=False)
        (attn_drop): Dropout(p=0.0, inplace=False)
        (proj): Linear(in_features=3200, out_features=3200, bias=True)
        (proj_drop): Dropout(p=0.0, inplace=False)
        (inner_attn): FlashAttention()
        (q_norm): FusedRMSNorm(torch.Size([3200]), eps=1e-06, elementwise_affine=True)
        (k_norm): FusedRMSNorm(torch.Size([3200]), eps=1e-06, elementwise_affine=True)
      )
      (ls1): LayerScale()
      (drop_path1): Identity()
      (norm2): FusedRMSNorm(torch.Size([3200]), eps=1e-06, elementwise_affine=True)
      (mlp): Mlp(
        (fc1): Linear(in_features=3200, out_features=12800, bias=True)
        (act): GELU(approximate='none')
        (drop1): Dropout(p=0.0, inplace=False)
        (fc2): Linear(in_features=12800, out_features=3200, bias=True)
        (drop2): Dropout(p=0.0, inplace=False)
      )
      (ls2): LayerScale()
      (drop_path2): Identity()
    )
    (23): Block(
      (norm1): FusedRMSNorm(torch.Size([3200]), eps=1e-06, elementwise_affine=True)
      (attn): Attention(
        (qkv): Linear(in_features=3200, out_features=9600, bias=False)
        (attn_drop): Dropout(p=0.0, inplace=False)
        (proj): Linear(in_features=3200, out_features=3200, bias=True)
        (proj_drop): Dropout(p=0.0, inplace=False)
        (inner_attn): FlashAttention()
        (q_norm): FusedRMSNorm(torch.Size([3200]), eps=1e-06, elementwise_affine=True)
        (k_norm): FusedRMSNorm(torch.Size([3200]), eps=1e-06, elementwise_affine=True)
      )
      (ls1): LayerScale()
      (drop_path1): Identity()
      (norm2): FusedRMSNorm(torch.Size([3200]), eps=1e-06, elementwise_affine=True)
      (mlp): Mlp(
        (fc1): Linear(in_features=3200, out_features=12800, bias=True)
        (act): GELU(approximate='none')
        (drop1): Dropout(p=0.0, inplace=False)
        (fc2): Linear(in_features=12800, out_features=3200, bias=True)
        (drop2): Dropout(p=0.0, inplace=False)
      )
      (ls2): LayerScale()
      (drop_path2): Identity()
    )
    (24): Block(
      (norm1): FusedRMSNorm(torch.Size([3200]), eps=1e-06, elementwise_affine=True)
      (attn): Attention(
        (qkv): Linear(in_features=3200, out_features=9600, bias=False)
        (attn_drop): Dropout(p=0.0, inplace=False)
        (proj): Linear(in_features=3200, out_features=3200, bias=True)
        (proj_drop): Dropout(p=0.0, inplace=False)
        (inner_attn): FlashAttention()
        (q_norm): FusedRMSNorm(torch.Size([3200]), eps=1e-06, elementwise_affine=True)
        (k_norm): FusedRMSNorm(torch.Size([3200]), eps=1e-06, elementwise_affine=True)
      )
      (ls1): LayerScale()
      (drop_path1): Identity()
      (norm2): FusedRMSNorm(torch.Size([3200]), eps=1e-06, elementwise_affine=True)
      (mlp): Mlp(
        (fc1): Linear(in_features=3200, out_features=12800, bias=True)
        (act): GELU(approximate='none')
        (drop1): Dropout(p=0.0, inplace=False)
        (fc2): Linear(in_features=12800, out_features=3200, bias=True)
        (drop2): Dropout(p=0.0, inplace=False)
      )
      (ls2): LayerScale()
      (drop_path2): Identity()
    )
    (25): Block(
      (norm1): FusedRMSNorm(torch.Size([3200]), eps=1e-06, elementwise_affine=True)
      (attn): Attention(
        (qkv): Linear(in_features=3200, out_features=9600, bias=False)
        (attn_drop): Dropout(p=0.0, inplace=False)
        (proj): Linear(in_features=3200, out_features=3200, bias=True)
        (proj_drop): Dropout(p=0.0, inplace=False)
        (inner_attn): FlashAttention()
        (q_norm): FusedRMSNorm(torch.Size([3200]), eps=1e-06, elementwise_affine=True)
        (k_norm): FusedRMSNorm(torch.Size([3200]), eps=1e-06, elementwise_affine=True)
      )
      (ls1): LayerScale()
      (drop_path1): Identity()
      (norm2): FusedRMSNorm(torch.Size([3200]), eps=1e-06, elementwise_affine=True)
      (mlp): Mlp(
        (fc1): Linear(in_features=3200, out_features=12800, bias=True)
        (act): GELU(approximate='none')
        (drop1): Dropout(p=0.0, inplace=False)
        (fc2): Linear(in_features=12800, out_features=3200, bias=True)
        (drop2): Dropout(p=0.0, inplace=False)
      )
      (ls2): LayerScale()
      (drop_path2): Identity()
    )
    (26): Block(
      (norm1): FusedRMSNorm(torch.Size([3200]), eps=1e-06, elementwise_affine=True)
      (attn): Attention(
        (qkv): Linear(in_features=3200, out_features=9600, bias=False)
        (attn_drop): Dropout(p=0.0, inplace=False)
        (proj): Linear(in_features=3200, out_features=3200, bias=True)
        (proj_drop): Dropout(p=0.0, inplace=False)
        (inner_attn): FlashAttention()
        (q_norm): FusedRMSNorm(torch.Size([3200]), eps=1e-06, elementwise_affine=True)
        (k_norm): FusedRMSNorm(torch.Size([3200]), eps=1e-06, elementwise_affine=True)
      )
      (ls1): LayerScale()
      (drop_path1): Identity()
      (norm2): FusedRMSNorm(torch.Size([3200]), eps=1e-06, elementwise_affine=True)
      (mlp): Mlp(
        (fc1): Linear(in_features=3200, out_features=12800, bias=True)
        (act): GELU(approximate='none')
        (drop1): Dropout(p=0.0, inplace=False)
        (fc2): Linear(in_features=12800, out_features=3200, bias=True)
        (drop2): Dropout(p=0.0, inplace=False)
      )
      (ls2): LayerScale()
      (drop_path2): Identity()
    )
    (27): Block(
      (norm1): FusedRMSNorm(torch.Size([3200]), eps=1e-06, elementwise_affine=True)
      (attn): Attention(
        (qkv): Linear(in_features=3200, out_features=9600, bias=False)
        (attn_drop): Dropout(p=0.0, inplace=False)
        (proj): Linear(in_features=3200, out_features=3200, bias=True)
        (proj_drop): Dropout(p=0.0, inplace=False)
        (inner_attn): FlashAttention()
        (q_norm): FusedRMSNorm(torch.Size([3200]), eps=1e-06, elementwise_affine=True)
        (k_norm): FusedRMSNorm(torch.Size([3200]), eps=1e-06, elementwise_affine=True)
      )
      (ls1): LayerScale()
      (drop_path1): Identity()
      (norm2): FusedRMSNorm(torch.Size([3200]), eps=1e-06, elementwise_affine=True)
      (mlp): Mlp(
        (fc1): Linear(in_features=3200, out_features=12800, bias=True)
        (act): GELU(approximate='none')
        (drop1): Dropout(p=0.0, inplace=False)
        (fc2): Linear(in_features=12800, out_features=3200, bias=True)
        (drop2): Dropout(p=0.0, inplace=False)
      )
      (ls2): LayerScale()
      (drop_path2): Identity()
    )
    (28): Block(
      (norm1): FusedRMSNorm(torch.Size([3200]), eps=1e-06, elementwise_affine=True)
      (attn): Attention(
        (qkv): Linear(in_features=3200, out_features=9600, bias=False)
        (attn_drop): Dropout(p=0.0, inplace=False)
        (proj): Linear(in_features=3200, out_features=3200, bias=True)
        (proj_drop): Dropout(p=0.0, inplace=False)
        (inner_attn): FlashAttention()
        (q_norm): FusedRMSNorm(torch.Size([3200]), eps=1e-06, elementwise_affine=True)
        (k_norm): FusedRMSNorm(torch.Size([3200]), eps=1e-06, elementwise_affine=True)
      )
      (ls1): LayerScale()
      (drop_path1): Identity()
      (norm2): FusedRMSNorm(torch.Size([3200]), eps=1e-06, elementwise_affine=True)
      (mlp): Mlp(
        (fc1): Linear(in_features=3200, out_features=12800, bias=True)
        (act): GELU(approximate='none')
        (drop1): Dropout(p=0.0, inplace=False)
        (fc2): Linear(in_features=12800, out_features=3200, bias=True)
        (drop2): Dropout(p=0.0, inplace=False)
      )
      (ls2): LayerScale()
      (drop_path2): Identity()
    )
    (29): Block(
      (norm1): FusedRMSNorm(torch.Size([3200]), eps=1e-06, elementwise_affine=True)
      (attn): Attention(
        (qkv): Linear(in_features=3200, out_features=9600, bias=False)
        (attn_drop): Dropout(p=0.0, inplace=False)
        (proj): Linear(in_features=3200, out_features=3200, bias=True)
        (proj_drop): Dropout(p=0.0, inplace=False)
        (inner_attn): FlashAttention()
        (q_norm): FusedRMSNorm(torch.Size([3200]), eps=1e-06, elementwise_affine=True)
        (k_norm): FusedRMSNorm(torch.Size([3200]), eps=1e-06, elementwise_affine=True)
      )
      (ls1): LayerScale()
      (drop_path1): Identity()
      (norm2): FusedRMSNorm(torch.Size([3200]), eps=1e-06, elementwise_affine=True)
      (mlp): Mlp(
        (fc1): Linear(in_features=3200, out_features=12800, bias=True)
        (act): GELU(approximate='none')
        (drop1): Dropout(p=0.0, inplace=False)
        (fc2): Linear(in_features=12800, out_features=3200, bias=True)
        (drop2): Dropout(p=0.0, inplace=False)
      )
      (ls2): LayerScale()
      (drop_path2): Identity()
    )
    (30): Block(
      (norm1): FusedRMSNorm(torch.Size([3200]), eps=1e-06, elementwise_affine=True)
      (attn): Attention(
        (qkv): Linear(in_features=3200, out_features=9600, bias=False)
        (attn_drop): Dropout(p=0.0, inplace=False)
        (proj): Linear(in_features=3200, out_features=3200, bias=True)
        (proj_drop): Dropout(p=0.0, inplace=False)
        (inner_attn): FlashAttention()
        (q_norm): FusedRMSNorm(torch.Size([3200]), eps=1e-06, elementwise_affine=True)
        (k_norm): FusedRMSNorm(torch.Size([3200]), eps=1e-06, elementwise_affine=True)
      )
      (ls1): LayerScale()
      (drop_path1): Identity()
      (norm2): FusedRMSNorm(torch.Size([3200]), eps=1e-06, elementwise_affine=True)
      (mlp): Mlp(
        (fc1): Linear(in_features=3200, out_features=12800, bias=True)
        (act): GELU(approximate='none')
        (drop1): Dropout(p=0.0, inplace=False)
        (fc2): Linear(in_features=12800, out_features=3200, bias=True)
        (drop2): Dropout(p=0.0, inplace=False)
      )
      (ls2): LayerScale()
      (drop_path2): Identity()
    )
    (31): Block(
      (norm1): FusedRMSNorm(torch.Size([3200]), eps=1e-06, elementwise_affine=True)
      (attn): Attention(
        (qkv): Linear(in_features=3200, out_features=9600, bias=False)
        (attn_drop): Dropout(p=0.0, inplace=False)
        (proj): Linear(in_features=3200, out_features=3200, bias=True)
        (proj_drop): Dropout(p=0.0, inplace=False)
        (inner_attn): FlashAttention()
        (q_norm): FusedRMSNorm(torch.Size([3200]), eps=1e-06, elementwise_affine=True)
        (k_norm): FusedRMSNorm(torch.Size([3200]), eps=1e-06, elementwise_affine=True)
      )
      (ls1): LayerScale()
      (drop_path1): Identity()
      (norm2): FusedRMSNorm(torch.Size([3200]), eps=1e-06, elementwise_affine=True)
      (mlp): Mlp(
        (fc1): Linear(in_features=3200, out_features=12800, bias=True)
        (act): GELU(approximate='none')
        (drop1): Dropout(p=0.0, inplace=False)
        (fc2): Linear(in_features=12800, out_features=3200, bias=True)
        (drop2): Dropout(p=0.0, inplace=False)
      )
      (ls2): LayerScale()
      (drop_path2): Identity()
    )
    (32): Block(
      (norm1): FusedRMSNorm(torch.Size([3200]), eps=1e-06, elementwise_affine=True)
      (attn): Attention(
        (qkv): Linear(in_features=3200, out_features=9600, bias=False)
        (attn_drop): Dropout(p=0.0, inplace=False)
        (proj): Linear(in_features=3200, out_features=3200, bias=True)
        (proj_drop): Dropout(p=0.0, inplace=False)
        (inner_attn): FlashAttention()
        (q_norm): FusedRMSNorm(torch.Size([3200]), eps=1e-06, elementwise_affine=True)
        (k_norm): FusedRMSNorm(torch.Size([3200]), eps=1e-06, elementwise_affine=True)
      )
      (ls1): LayerScale()
      (drop_path1): Identity()
      (norm2): FusedRMSNorm(torch.Size([3200]), eps=1e-06, elementwise_affine=True)
      (mlp): Mlp(
        (fc1): Linear(in_features=3200, out_features=12800, bias=True)
        (act): GELU(approximate='none')
        (drop1): Dropout(p=0.0, inplace=False)
        (fc2): Linear(in_features=12800, out_features=3200, bias=True)
        (drop2): Dropout(p=0.0, inplace=False)
      )
      (ls2): LayerScale()
      (drop_path2): Identity()
    )
    (33): Block(
      (norm1): FusedRMSNorm(torch.Size([3200]), eps=1e-06, elementwise_affine=True)
      (attn): Attention(
        (qkv): Linear(in_features=3200, out_features=9600, bias=False)
        (attn_drop): Dropout(p=0.0, inplace=False)
        (proj): Linear(in_features=3200, out_features=3200, bias=True)
        (proj_drop): Dropout(p=0.0, inplace=False)
        (inner_attn): FlashAttention()
        (q_norm): FusedRMSNorm(torch.Size([3200]), eps=1e-06, elementwise_affine=True)
        (k_norm): FusedRMSNorm(torch.Size([3200]), eps=1e-06, elementwise_affine=True)
      )
      (ls1): LayerScale()
      (drop_path1): Identity()
      (norm2): FusedRMSNorm(torch.Size([3200]), eps=1e-06, elementwise_affine=True)
      (mlp): Mlp(
        (fc1): Linear(in_features=3200, out_features=12800, bias=True)
        (act): GELU(approximate='none')
        (drop1): Dropout(p=0.0, inplace=False)
        (fc2): Linear(in_features=12800, out_features=3200, bias=True)
        (drop2): Dropout(p=0.0, inplace=False)
      )
      (ls2): LayerScale()
      (drop_path2): Identity()
    )
    (34): Block(
      (norm1): FusedRMSNorm(torch.Size([3200]), eps=1e-06, elementwise_affine=True)
      (attn): Attention(
        (qkv): Linear(in_features=3200, out_features=9600, bias=False)
        (attn_drop): Dropout(p=0.0, inplace=False)
        (proj): Linear(in_features=3200, out_features=3200, bias=True)
        (proj_drop): Dropout(p=0.0, inplace=False)
        (inner_attn): FlashAttention()
        (q_norm): FusedRMSNorm(torch.Size([3200]), eps=1e-06, elementwise_affine=True)
        (k_norm): FusedRMSNorm(torch.Size([3200]), eps=1e-06, elementwise_affine=True)
      )
      (ls1): LayerScale()
      (drop_path1): Identity()
      (norm2): FusedRMSNorm(torch.Size([3200]), eps=1e-06, elementwise_affine=True)
      (mlp): Mlp(
        (fc1): Linear(in_features=3200, out_features=12800, bias=True)
        (act): GELU(approximate='none')
        (drop1): Dropout(p=0.0, inplace=False)
        (fc2): Linear(in_features=12800, out_features=3200, bias=True)
        (drop2): Dropout(p=0.0, inplace=False)
      )
      (ls2): LayerScale()
      (drop_path2): Identity()
    )
    (35): Block(
      (norm1): FusedRMSNorm(torch.Size([3200]), eps=1e-06, elementwise_affine=True)
      (attn): Attention(
        (qkv): Linear(in_features=3200, out_features=9600, bias=False)
        (attn_drop): Dropout(p=0.0, inplace=False)
        (proj): Linear(in_features=3200, out_features=3200, bias=True)
        (proj_drop): Dropout(p=0.0, inplace=False)
        (inner_attn): FlashAttention()
        (q_norm): FusedRMSNorm(torch.Size([3200]), eps=1e-06, elementwise_affine=True)
        (k_norm): FusedRMSNorm(torch.Size([3200]), eps=1e-06, elementwise_affine=True)
      )
      (ls1): LayerScale()
      (drop_path1): Identity()
      (norm2): FusedRMSNorm(torch.Size([3200]), eps=1e-06, elementwise_affine=True)
      (mlp): Mlp(
        (fc1): Linear(in_features=3200, out_features=12800, bias=True)
        (act): GELU(approximate='none')
        (drop1): Dropout(p=0.0, inplace=False)
        (fc2): Linear(in_features=12800, out_features=3200, bias=True)
        (drop2): Dropout(p=0.0, inplace=False)
      )
      (ls2): LayerScale()
      (drop_path2): Identity()
    )
    (36): Block(
      (norm1): FusedRMSNorm(torch.Size([3200]), eps=1e-06, elementwise_affine=True)
      (attn): Attention(
        (qkv): Linear(in_features=3200, out_features=9600, bias=False)
        (attn_drop): Dropout(p=0.0, inplace=False)
        (proj): Linear(in_features=3200, out_features=3200, bias=True)
        (proj_drop): Dropout(p=0.0, inplace=False)
        (inner_attn): FlashAttention()
        (q_norm): FusedRMSNorm(torch.Size([3200]), eps=1e-06, elementwise_affine=True)
        (k_norm): FusedRMSNorm(torch.Size([3200]), eps=1e-06, elementwise_affine=True)
      )
      (ls1): LayerScale()
      (drop_path1): Identity()
      (norm2): FusedRMSNorm(torch.Size([3200]), eps=1e-06, elementwise_affine=True)
      (mlp): Mlp(
        (fc1): Linear(in_features=3200, out_features=12800, bias=True)
        (act): GELU(approximate='none')
        (drop1): Dropout(p=0.0, inplace=False)
        (fc2): Linear(in_features=12800, out_features=3200, bias=True)
        (drop2): Dropout(p=0.0, inplace=False)
      )
      (ls2): LayerScale()
      (drop_path2): Identity()
    )
    (37): Block(
      (norm1): FusedRMSNorm(torch.Size([3200]), eps=1e-06, elementwise_affine=True)
      (attn): Attention(
        (qkv): Linear(in_features=3200, out_features=9600, bias=False)
        (attn_drop): Dropout(p=0.0, inplace=False)
        (proj): Linear(in_features=3200, out_features=3200, bias=True)
        (proj_drop): Dropout(p=0.0, inplace=False)
        (inner_attn): FlashAttention()
        (q_norm): FusedRMSNorm(torch.Size([3200]), eps=1e-06, elementwise_affine=True)
        (k_norm): FusedRMSNorm(torch.Size([3200]), eps=1e-06, elementwise_affine=True)
      )
      (ls1): LayerScale()
      (drop_path1): Identity()
      (norm2): FusedRMSNorm(torch.Size([3200]), eps=1e-06, elementwise_affine=True)
      (mlp): Mlp(
        (fc1): Linear(in_features=3200, out_features=12800, bias=True)
        (act): GELU(approximate='none')
        (drop1): Dropout(p=0.0, inplace=False)
        (fc2): Linear(in_features=12800, out_features=3200, bias=True)
        (drop2): Dropout(p=0.0, inplace=False)
      )
      (ls2): LayerScale()
      (drop_path2): Identity()
    )
    (38): Block(
      (norm1): FusedRMSNorm(torch.Size([3200]), eps=1e-06, elementwise_affine=True)
      (attn): Attention(
        (qkv): Linear(in_features=3200, out_features=9600, bias=False)
        (attn_drop): Dropout(p=0.0, inplace=False)
        (proj): Linear(in_features=3200, out_features=3200, bias=True)
        (proj_drop): Dropout(p=0.0, inplace=False)
        (inner_attn): FlashAttention()
        (q_norm): FusedRMSNorm(torch.Size([3200]), eps=1e-06, elementwise_affine=True)
        (k_norm): FusedRMSNorm(torch.Size([3200]), eps=1e-06, elementwise_affine=True)
      )
      (ls1): LayerScale()
      (drop_path1): Identity()
      (norm2): FusedRMSNorm(torch.Size([3200]), eps=1e-06, elementwise_affine=True)
      (mlp): Mlp(
        (fc1): Linear(in_features=3200, out_features=12800, bias=True)
        (act): GELU(approximate='none')
        (drop1): Dropout(p=0.0, inplace=False)
        (fc2): Linear(in_features=12800, out_features=3200, bias=True)
        (drop2): Dropout(p=0.0, inplace=False)
      )
      (ls2): LayerScale()
      (drop_path2): Identity()
    )
    (39): Block(
      (norm1): FusedRMSNorm(torch.Size([3200]), eps=1e-06, elementwise_affine=True)
      (attn): Attention(
        (qkv): Linear(in_features=3200, out_features=9600, bias=False)
        (attn_drop): Dropout(p=0.0, inplace=False)
        (proj): Linear(in_features=3200, out_features=3200, bias=True)
        (proj_drop): Dropout(p=0.0, inplace=False)
        (inner_attn): FlashAttention()
        (q_norm): FusedRMSNorm(torch.Size([3200]), eps=1e-06, elementwise_affine=True)
        (k_norm): FusedRMSNorm(torch.Size([3200]), eps=1e-06, elementwise_affine=True)
      )
      (ls1): LayerScale()
      (drop_path1): Identity()
      (norm2): FusedRMSNorm(torch.Size([3200]), eps=1e-06, elementwise_affine=True)
      (mlp): Mlp(
        (fc1): Linear(in_features=3200, out_features=12800, bias=True)
        (act): GELU(approximate='none')
        (drop1): Dropout(p=0.0, inplace=False)
        (fc2): Linear(in_features=12800, out_features=3200, bias=True)
        (drop2): Dropout(p=0.0, inplace=False)
      )
      (ls2): LayerScale()
      (drop_path2): Identity()
    )
    (40): Block(
      (norm1): FusedRMSNorm(torch.Size([3200]), eps=1e-06, elementwise_affine=True)
      (attn): Attention(
        (qkv): Linear(in_features=3200, out_features=9600, bias=False)
        (attn_drop): Dropout(p=0.0, inplace=False)
        (proj): Linear(in_features=3200, out_features=3200, bias=True)
        (proj_drop): Dropout(p=0.0, inplace=False)
        (inner_attn): FlashAttention()
        (q_norm): FusedRMSNorm(torch.Size([3200]), eps=1e-06, elementwise_affine=True)
        (k_norm): FusedRMSNorm(torch.Size([3200]), eps=1e-06, elementwise_affine=True)
      )
      (ls1): LayerScale()
      (drop_path1): Identity()
      (norm2): FusedRMSNorm(torch.Size([3200]), eps=1e-06, elementwise_affine=True)
      (mlp): Mlp(
        (fc1): Linear(in_features=3200, out_features=12800, bias=True)
        (act): GELU(approximate='none')
        (drop1): Dropout(p=0.0, inplace=False)
        (fc2): Linear(in_features=12800, out_features=3200, bias=True)
        (drop2): Dropout(p=0.0, inplace=False)
      )
      (ls2): LayerScale()
      (drop_path2): Identity()
    )
    (41): Block(
      (norm1): FusedRMSNorm(torch.Size([3200]), eps=1e-06, elementwise_affine=True)
      (attn): Attention(
        (qkv): Linear(in_features=3200, out_features=9600, bias=False)
        (attn_drop): Dropout(p=0.0, inplace=False)
        (proj): Linear(in_features=3200, out_features=3200, bias=True)
        (proj_drop): Dropout(p=0.0, inplace=False)
        (inner_attn): FlashAttention()
        (q_norm): FusedRMSNorm(torch.Size([3200]), eps=1e-06, elementwise_affine=True)
        (k_norm): FusedRMSNorm(torch.Size([3200]), eps=1e-06, elementwise_affine=True)
      )
      (ls1): LayerScale()
      (drop_path1): Identity()
      (norm2): FusedRMSNorm(torch.Size([3200]), eps=1e-06, elementwise_affine=True)
      (mlp): Mlp(
        (fc1): Linear(in_features=3200, out_features=12800, bias=True)
        (act): GELU(approximate='none')
        (drop1): Dropout(p=0.0, inplace=False)
        (fc2): Linear(in_features=12800, out_features=3200, bias=True)
        (drop2): Dropout(p=0.0, inplace=False)
      )
      (ls2): LayerScale()
      (drop_path2): Identity()
    )
    (42): Block(
      (norm1): FusedRMSNorm(torch.Size([3200]), eps=1e-06, elementwise_affine=True)
      (attn): Attention(
        (qkv): Linear(in_features=3200, out_features=9600, bias=False)
        (attn_drop): Dropout(p=0.0, inplace=False)
        (proj): Linear(in_features=3200, out_features=3200, bias=True)
        (proj_drop): Dropout(p=0.0, inplace=False)
        (inner_attn): FlashAttention()
        (q_norm): FusedRMSNorm(torch.Size([3200]), eps=1e-06, elementwise_affine=True)
        (k_norm): FusedRMSNorm(torch.Size([3200]), eps=1e-06, elementwise_affine=True)
      )
      (ls1): LayerScale()
      (drop_path1): Identity()
      (norm2): FusedRMSNorm(torch.Size([3200]), eps=1e-06, elementwise_affine=True)
      (mlp): Mlp(
        (fc1): Linear(in_features=3200, out_features=12800, bias=True)
        (act): GELU(approximate='none')
        (drop1): Dropout(p=0.0, inplace=False)
        (fc2): Linear(in_features=12800, out_features=3200, bias=True)
        (drop2): Dropout(p=0.0, inplace=False)
      )
      (ls2): LayerScale()
      (drop_path2): Identity()
    )
    (43): Block(
      (norm1): FusedRMSNorm(torch.Size([3200]), eps=1e-06, elementwise_affine=True)
      (attn): Attention(
        (qkv): Linear(in_features=3200, out_features=9600, bias=False)
        (attn_drop): Dropout(p=0.0, inplace=False)
        (proj): Linear(in_features=3200, out_features=3200, bias=True)
        (proj_drop): Dropout(p=0.0, inplace=False)
        (inner_attn): FlashAttention()
        (q_norm): FusedRMSNorm(torch.Size([3200]), eps=1e-06, elementwise_affine=True)
        (k_norm): FusedRMSNorm(torch.Size([3200]), eps=1e-06, elementwise_affine=True)
      )
      (ls1): LayerScale()
      (drop_path1): Identity()
      (norm2): FusedRMSNorm(torch.Size([3200]), eps=1e-06, elementwise_affine=True)
      (mlp): Mlp(
        (fc1): Linear(in_features=3200, out_features=12800, bias=True)
        (act): GELU(approximate='none')
        (drop1): Dropout(p=0.0, inplace=False)
        (fc2): Linear(in_features=12800, out_features=3200, bias=True)
        (drop2): Dropout(p=0.0, inplace=False)
      )
      (ls2): LayerScale()
      (drop_path2): Identity()
    )
    (44): Block(
      (norm1): FusedRMSNorm(torch.Size([3200]), eps=1e-06, elementwise_affine=True)
      (attn): Attention(
        (qkv): Linear(in_features=3200, out_features=9600, bias=False)
        (attn_drop): Dropout(p=0.0, inplace=False)
        (proj): Linear(in_features=3200, out_features=3200, bias=True)
        (proj_drop): Dropout(p=0.0, inplace=False)
        (inner_attn): FlashAttention()
        (q_norm): FusedRMSNorm(torch.Size([3200]), eps=1e-06, elementwise_affine=True)
        (k_norm): FusedRMSNorm(torch.Size([3200]), eps=1e-06, elementwise_affine=True)
      )
      (ls1): LayerScale()
      (drop_path1): Identity()
      (norm2): FusedRMSNorm(torch.Size([3200]), eps=1e-06, elementwise_affine=True)
      (mlp): Mlp(
        (fc1): Linear(in_features=3200, out_features=12800, bias=True)
        (act): GELU(approximate='none')
        (drop1): Dropout(p=0.0, inplace=False)
        (fc2): Linear(in_features=12800, out_features=3200, bias=True)
        (drop2): Dropout(p=0.0, inplace=False)
      )
      (ls2): LayerScale()
      (drop_path2): Identity()
    )
    (45): Block(
      (norm1): FusedRMSNorm(torch.Size([3200]), eps=1e-06, elementwise_affine=True)
      (attn): Attention(
        (qkv): Linear(in_features=3200, out_features=9600, bias=False)
        (attn_drop): Dropout(p=0.0, inplace=False)
        (proj): Linear(in_features=3200, out_features=3200, bias=True)
        (proj_drop): Dropout(p=0.0, inplace=False)
        (inner_attn): FlashAttention()
        (q_norm): FusedRMSNorm(torch.Size([3200]), eps=1e-06, elementwise_affine=True)
        (k_norm): FusedRMSNorm(torch.Size([3200]), eps=1e-06, elementwise_affine=True)
      )
      (ls1): LayerScale()
      (drop_path1): Identity()
      (norm2): FusedRMSNorm(torch.Size([3200]), eps=1e-06, elementwise_affine=True)
      (mlp): Mlp(
        (fc1): Linear(in_features=3200, out_features=12800, bias=True)
        (act): GELU(approximate='none')
        (drop1): Dropout(p=0.0, inplace=False)
        (fc2): Linear(in_features=12800, out_features=3200, bias=True)
        (drop2): Dropout(p=0.0, inplace=False)
      )
      (ls2): LayerScale()
      (drop_path2): Identity()
    )
    (46): Block(
      (norm1): FusedRMSNorm(torch.Size([3200]), eps=1e-06, elementwise_affine=True)
      (attn): Attention(
        (qkv): Linear(in_features=3200, out_features=9600, bias=False)
        (attn_drop): Dropout(p=0.0, inplace=False)
        (proj): Linear(in_features=3200, out_features=3200, bias=True)
        (proj_drop): Dropout(p=0.0, inplace=False)
        (inner_attn): FlashAttention()
        (q_norm): FusedRMSNorm(torch.Size([3200]), eps=1e-06, elementwise_affine=True)
        (k_norm): FusedRMSNorm(torch.Size([3200]), eps=1e-06, elementwise_affine=True)
      )
      (ls1): LayerScale()
      (drop_path1): Identity()
      (norm2): FusedRMSNorm(torch.Size([3200]), eps=1e-06, elementwise_affine=True)
      (mlp): Mlp(
        (fc1): Linear(in_features=3200, out_features=12800, bias=True)
        (act): GELU(approximate='none')
        (drop1): Dropout(p=0.0, inplace=False)
        (fc2): Linear(in_features=12800, out_features=3200, bias=True)
        (drop2): Dropout(p=0.0, inplace=False)
      )
      (ls2): LayerScale()
      (drop_path2): Identity()
    )
    (47): Block(
      (norm1): FusedRMSNorm(torch.Size([3200]), eps=1e-06, elementwise_affine=True)
      (attn): Attention(
        (qkv): Linear(in_features=3200, out_features=9600, bias=False)
        (attn_drop): Dropout(p=0.0, inplace=False)
        (proj): Linear(in_features=3200, out_features=3200, bias=True)
        (proj_drop): Dropout(p=0.0, inplace=False)
        (inner_attn): FlashAttention()
        (q_norm): FusedRMSNorm(torch.Size([3200]), eps=1e-06, elementwise_affine=True)
        (k_norm): FusedRMSNorm(torch.Size([3200]), eps=1e-06, elementwise_affine=True)
      )
      (ls1): LayerScale()
      (drop_path1): Identity()
      (norm2): FusedRMSNorm(torch.Size([3200]), eps=1e-06, elementwise_affine=True)
      (mlp): Mlp(
        (fc1): Linear(in_features=3200, out_features=12800, bias=True)
        (act): GELU(approximate='none')
        (drop1): Dropout(p=0.0, inplace=False)
        (fc2): Linear(in_features=12800, out_features=3200, bias=True)
        (drop2): Dropout(p=0.0, inplace=False)
      )
      (ls2): LayerScale()
      (drop_path2): Identity()
    )
  )
  (clip_projector): AttentionPoolingBlock(
    (norm1_q): LayerNorm((3200,), eps=1e-05, elementwise_affine=True)
    (norm1_k): LayerNorm((3200,), eps=1e-05, elementwise_affine=True)
    (norm1_v): LayerNorm((3200,), eps=1e-05, elementwise_affine=True)
    (cross_attn): CrossAttention(
      (q): Linear(in_features=3200, out_features=3200, bias=False)
      (k): Linear(in_features=3200, out_features=3200, bias=False)
      (v): Linear(in_features=3200, out_features=3200, bias=False)
      (attn_drop): Dropout(p=0.0, inplace=False)
      (proj): Linear(in_features=3200, out_features=768, bias=True)
      (proj_drop): Dropout(p=0.0, inplace=False)
    )
    (drop_path): Identity()
  )
  (head): Linear(in_features=6400, out_features=1000, bias=True)
)
[2023-11-09 22:24:14 intern_vit_6b_1k_224_cls_patch_sgd_lr0.1] (main.py 212): INFO Using native Torch AMP. Training in mixed precision.
[2023-11-09 22:24:18 intern_vit_6b_1k_224_cls_patch_sgd_lr0.1] (main.py 232): INFO number of params: 6401000
[2023-11-09 22:24:18 intern_vit_6b_1k_224_cls_patch_sgd_lr0.1] (main.py 266): INFO no checkpoint found in work_dirs/intern_vit_6b_1k_224_cls_patch_sgd_lr0.1, ignoring auto resume
…
